blocklens_model.pth (torch, 745085 bytes, 8 tensors)

img_branch.0.weight f4 [256, 576]
-0.016041484 0.013578638 0.028512033 0.045829836 -0.023605097 0.016549416 -0.008319892 -0.013473261
0.019510912 -0.021927368 0.050053004 0.022381935 0.0202991 0.021031912 0.0061598965 0.019214526
-0.015587779 -0.007541069 0.035831016 0.0020226194 8.4731786e-05 -0.027566655 -0.034048263 0.0034765177
0.008276638 -0.031464525 -0.025785042 0.02062574 -0.008288509 -0.023472212 0.038565125 0.027118705
-0.00978929 -0.016088553 0.020521436 -0.0339408 0.021468684 0.010003547 0.035648372 0.050626937
0.0014921577 0.0144585045 0.040247947 0.00896214 -0.0078245085 0.01420897 -0.02883325 0.02353262
-0.016615016 0.011871774 -0.0114435265 0.0028287265 -0.010300639 -0.03511412 -0.014535008 -0.0001058256
0.048996173 0.0020111408 0.010366563 -0.011430773 -0.02698086 -0.02681766 -0.009342514 0.020558072
-0.022908652 0.039432462 -0.029775582 0.033296697 0.031472567 0.003274649 0.042829808 -0.04093261
0.016210718 -0.029233322 -0.010436194 0.039967056 -0.01888324 0.0050702207 0.020086406 0.049939174
-0.0044449796 0.044761527 -0.017910749 0.0111167785 -0.0027362597 -0.041898876 0.044358127 -0.029108644
-0.007784428 0.040922288 0.010150036 0.035080347 -0.025833802 0.012862325 0.030684834 0.044135444
0.029375568 0.019236134 0.0062095197 0.033534575 0.011910729 -0.034735866 0.028585738 0.011692988
0.041068625 0.024213959 0.038423575 -0.022054575 0.0344991 -0.014645391 0.026820058 0.025729869
-0.0030683414 -0.023985356 -0.0054087797 -0.015371276 -0.022485813 -0.015574131 -0.0153740775 0.013120246
0.012925081 -0.02480333 -0.022971112 -0.02344777 0.0013357603 -0.038278062 0.034524884 0.04143995
0.00390167 -0.01500593 -0.019517602 0.022553558 0.00048522966 -0.016060574 -0.038779568 0.018669985
0.04198979 -0.00686386 0.033850122 -0.042677667 0.034458827 0.04438461 -0.018722858 0.0126059735
0.035403237 0.043008313 0.03719082 0.015178585 0.043179534 -0.014887336 -0.0127468845 0.005214359
0.015277997 -0.011723951 -0.03692554 -0.023988208 -0.033992924 -0.021794932 -0.03345429 0.018722398
0.024066921 -0.028855613 0.026810102 0.021113824 0.021826405 -0.031518724 -0.021987155 0.02224236
-0.010678905 0.000960675 0.040792808 -0.035813145 -0.017872237 -8.073461e-05 0.030120755 0.035878
0.020399649 -0.034081638 0.035701014 0.01803977 -0.00020100205 0.027863583 0.006461883 -0.017579243
0.04283782 0.041935544 0.029537603 0.033080086 -0.015670618 0.035200987 0.010670723 0.033117663
0.03507707 0.007848142 0.036251705 -0.021260867 -0.0033298477 -0.029354615 -0.01563614 -0.01863379
-0.023017844 0.030130913 0.0030505983 0.011612532 -0.005264326 0.031479917 0.0202802 -0.03285413
0.043715052 0.014457272 0.039119184 -0.016611565 -0.0025168424 -0.017379047 0.043226458 0.024052026
0.022711787 0.008713218 -0.030787872 0.021549072 -0.0031985415 0.039384995 -0.017894454 0.047515485
0.039923523 -0.015605197 0.0236857 -0.032078672 -0.025292126 0.03344429 -0.024405476 -0.010123892
0.01958549 -0.026095923 0.00024082238 -0.012107472 0.044933017 -0.018124558 -0.029679265 0.004669613
-0.008497119 -0.012602651 0.0023433696 0.005238036 0.0330068 0.022255778 -0.0061056633 0.02519713
0.02667538 -0.018057344 0.044511274 0.013319893 0.0018748469 -0.0065594455 0.0394081 0.018047906
00000000: 6e69 83bc f078 5e3c 1192 e93c 11b8 3b3d
00000010: 7a5f c1bc a492 873c 2850 08bc f4be 5cbc
00000020: 59d5 9f3c 06a1 b3bc 6104 4d3d 525a b73c
00000030: 4c4a a63c 1e4b ac3c f5d8 c93b c867 9d3c
00000040: e263 7fbc 121b f7bb 8bc3 123d ec8d 043b
00000050: 08b2 b138 77d3 e1bc 3176 0bbd 4ad6 633b
00000060: bc9a 073c f2e0 00bd 273b d3bc 50f7 a83c
00000070: 87cc 07bc cc48 c0bc 77f6 1d3d 0c28 de3c
00000080: 4263 20bc 24cc 83bc 921c a83c 8205 0bbd
00000090: 18df af3c ebe5 233c 0704 123d 315e 4f3d
000000a0: 8194 c33a 5de3 6c3c 08db 243d f1d5 123c
000000b0: 5e32 00bc bdcc 683c b533 ecbc 7bc7 c03c
000000c0: 371c 88bc d481 423c a17d 3bbc 2862 393b
000000d0: 03c4 28bc d3d3 0fbd 3e24 6ebc b0ee ddb8
000000e0: 36b0 483d 58cd 033b 84d8 293c 2348 3bbc
000000f0: f706 ddbc b6b0 dbbc 5811 19bc 6769 a83c
00000100: edaa bbbc ef83 213d eceb f3bc 1e62 083d
00000110: 61e9 003d 7e9b 563b 4f6e 2f3d f4a8 27bd
00000120: 57cc 843c b87a efbc 92fc 2abc 7fb4 233d
00000130: 06b1 9abc 1824 a63b 3f8c a43c 058d 4c3d
00000140: 31a7 91bb dd57 373d 90b9 92bc 2623 363c
00000150: d252 33bb 289e 2bbd deb0 353d 4075 eebc
00000160: 8414 ffbb 219e 273d 564c 263c 69b0 0f3d
00000170: 69a1 d3bc 80bc 523c c35e fb3c 5ec7 343d
00000180: 08a5 f03c 1995 9d3c 3a79 cb3b 8d5b 093d
00000190: 3825 433c 3247 0ebd a32c ea3c f293 3f3c
000001a0: 9337 283d 5a5c c63c 0a62 1d3d ccab b4bc
000001b0: ee4e 0d3d 39f3 6fbc bdb5 db3c 72c7 d23c
000001c0: 3a16 49bb f07c c4bc 223c b1bb ced7 7bbc
000001d0: 2b34 b8bc a42a 7fbc 8ee3 7bbc 4df6 563c
000001e0: b8c3 533c 5a30 cbbc ea2d bcbc 8a15 c0bc
000001f0: ae14 af3a 75c9 1cbd f769 0d3d f0bc 293d
00000200: 29b3 7f3b 6fdb 75bc 61e3 9fbc 3dc2 b83c
00000210: 6c66 fe39 7791 83bc 53d7 1ebd ccf1 983c
00000220: 7cfd 2b3d 3bea e0bb 6da6 0a3d c7ce 2ebd
00000230: b324 0d3d a3cc 353d ae60 99bc 4989 4e3c
00000240: fc02 113d 7c29 303d 6755 183d 9aaf 783c
00000250: 06dd 303d 03ea 73bc 4fd8 50bc 37dd aa3b
00000260: 9050 7a3c d115 40bc 3c3f 17bd eb82 c4bc
00000270: 2a3c 0bbd 498b b2bc 5e07 09bd b75f 993c
00000280: fe27 c53c 9b62 ecbc dca0 db3c e6f6 ac3c
00000290: 4acd b23c c719 01bd 681e b4bc 9c35 b63c
000002a0: 93f6 2ebc cfd5 7b3a 5c16 273d ceb0 12bd
000002b0: cc68 92bc 1050 a9b8 cdbf f63c cff4 123d
000002c0: 2a1d a73c 3099 0bbd 3a3b 123d 24c8 933c
000002d0: 14c4 52b9 2b42 e43c 34be d33b 5802 90bc
000002e0: b676 2f3d 9bc4 2b3d d8f8 f13c fc7e 073d
000002f0: ab5f 80bc e92e 103d 42d4 2e3c 63a6 073d
00000300: f9ac 0f3d 7e95 003c ab7c 143d 452b aebc
00000310: 9339 5abb 1779 f0bc 5d17 80bc e4a5 98bc
00000320: eb8f bcbc 1bd5 f63c 8cec 473b 7d42 3e3c
00000330: 5e80 acbb 16f1 003d a922 a63c 0d92 06bd
00000340: 8e0e 333d 32de 6c3c 703b 203d fa14 88bc
00000350: 9cf1 24bb 815e 8ebc 3a0e 313d c108 c53c
00000360: 120e ba3c e3c1 0e3c d936 fcbc ae87 b03c
00000370: 9f9e 51bb 2952 213d 6497 92bc 999f 423d
00000380: d986 233d f1ac 7fbc 8308 c23c ed64 03bd
00000390: 6f31 cfbc e1fc 083d feed c7bc aede 25bc
000003a0: c071 a03c 1ec7 d5bc 4485 7c39 6b5e 46bc
000003b0: af0b 383d f479 94bc ee21 f3bc 8e03 993b
000003c0: 8037 0bbc 597b 4ebc 3893 193b d5a3 ab3b
000003d0: 2332 073d c051 b63c 0412 c8bb 366a ce3c
000003e0: 5486 da3c ffec 93bc 7451 363d ae3b 5a3c
000003f0: 6cbd f53a 9ef0 d6bb 636a 213d 34d9 933c

img_branch.0.bias f4 [256]
-0.007435596 0.028161824 0.04180517 -0.021891497 0.035120964 -0.0025672899 -0.01890958 -0.03185652
0.046752874 -0.031238774 0.030909259 -0.0446585 0.02117596 0.0034803394 0.041721486 0.038453132
0.029150879 0.0019027988 -0.009382894 0.02794393 0.047141794 0.009998724 -0.02023429 0.035620343
0.006929451 -0.015071368 -0.004135297 0.031880457 0.02101954 -0.027602483 -0.02685928 0.043138158
-0.020266682 0.0141202435 0.0014734813 -0.01734145 0.009499306 0.027236307 0.036137786 -0.016675623
-0.036158174 0.036497463 0.03791059 0.009539084 0.014171341 -0.029565442 -0.005792368 0.0089746285
0.02759083 0.01565781 -0.015263473 -0.03885669 -0.03803311 -0.0008379062 -0.014115274 -0.025645867
0.03477267 0.021346755 -0.005173224 0.0038636206 -0.021309236 0.030872086 -0.0137214 -0.011584486
0.03462552 0.036012415 -0.0077576037 0.048916064 -0.025271602 -0.00041319447 -0.026792645 0.014476148
0.009497759 -0.008211224 0.018005613 -0.03783829 0.031469498 0.037242826 0.035007 0.0038973088
-0.036505986 -0.025468385 0.019849597 -0.030567955 -0.0069265245 -0.03525586 -0.029307287 -0.012203649
0.041675728 -0.023797363 0.031406175 0.038085185 0.026301235 -0.0005557762 -0.0071122786 0.01597526
-0.02621378 0.016343972 -0.004058466 -0.011613405 0.0176432 -0.02105197 0.035153497 0.025746526
0.046027288 0.037916757 0.03838389 0.0026824288 -0.03579339 -0.011804518 -0.024683494 0.008691696
-0.0021485505 0.035508107 -0.011862238 0.012663243 -0.038425848 0.04015666 0.03667424 -2.8689741e-05
-0.029066753 0.028471302 0.02183571 0.026532792 -0.03883446 0.02101003 0.018993042 0.037849415
-0.0095590595 -0.004781735 -0.005513501 0.032568406 -0.0011733063 0.015567239 -0.01859318 -0.037796207
-0.027286978 0.03933657 -0.02786297 -0.032893524 -0.017670956 -0.028010175 -0.009546575 -0.0013830853
-0.007504245 0.034371585 0.019389967 0.007091015 0.008567841 0.006912038 -0.013056296 0.019054145
0.021477468 -0.0075549507 0.024604129 0.038721852 -0.018785937 0.013638449 -0.031242806 0.00998621
0.042175807 0.028405724 0.005385399 0.04645594 -0.012927801 0.02696287 -0.015919445 0.017428169
-0.007366203 -0.019388475 0.03360836 0.0361862 -0.022055343 -0.03947709 0.020886106 0.031210257
0.010934184 -0.030511837 0.0021298917 -0.009123977 -0.03607924 -0.01414104 0.026689703 -0.007924267
-0.01755949 0.02344989 0.03694767 0.015586115 0.0028015529 -0.010103999 0.03405521 0.021526711
-0.037496593 0.030823648 -0.017808376 -0.02422606 0.0039864145 -0.043487232 0.042985883 0.036357556
-0.0008446969 -0.018967535 0.0075688898 -0.011830508 0.028378477 -0.016043702 -0.038379785 0.00032060547
0.035390176 0.03570882 0.0048821615 0.033516023 0.03189415 -0.02529315 0.015908625 0.011253298
-0.006390022 0.043535206 0.013000192 0.013553595 0.034156103 0.010276575 0.023006208 -0.02329159
-0.014255833 0.026481498 -0.030383717 0.0038056166 0.013116599 0.019768687 -0.006891819 -0.0011856453
-0.044939734 -0.020670507 -0.036675137 0.023798507 -0.010518312 -0.022335587 -0.023416372 -0.0065773968
-0.04009148 -0.017422749 -0.033373427 0.020415088 0.04364853 0.025068983 0.031361505 -0.011127666
-0.019090956 0.020150729 -0.02804899 -0.03181688 -0.009716832 0.024357049 0.046268195 0.039680835
00000000: 4da6 f3bb a0b3 e63c e63b 2b3d cc55 b3bc
00000010: 00db 0f3d fa3f 28bb 43e8 9abc fb7b 02bd
00000020: f17f 3f3d 75e8 ffbc 6a35 fd3c d5eb 36bd
00000030: 3579 ad3c 6816 643b 26e4 2a3d 0881 1d3d
00000040: d3cd ee3c 5567 f93a b6ba 19bc abea e43c
00000050: c117 413d b0d1 233c 62c2 a5bc a3e6 113d
00000060: 7310 e33b e6ed 76bc 6381 87bb 1595 023d
00000070: 2c31 ac3c 9a1e e2bc fe07 dcbc a3b1 303d
00000080: 5006 a6bc 9858 673c d421 c13a a80f 8ebc
00000090: faa2 1b3c ad1e df3c 3705 143d 519b 88bc
000000a0: 981a 14bd 5d7e 153d 2348 1b3d d149 1c3c
000000b0: ea2e 683c 3a33 f2bc e8cd bdbb 520a 133c
000000c0: 2a06 e23c cf44 803c a513 7abc 3128 1fbd
000000d0: 9bc8 1bbd efa6 5bba c043 67bc 4817 d2bc
000000e0: ca6d 0e3d 64df ae3c 2684 a9bb cc34 7d3b
000000f0: b590 aebc 75e7 fc3c b9cf 60bc dbcc 3dbc
00000100: 7dd3 0d3d c181 133d 7f33 febb 365c 483d
00000110: 6406 cfbc 06a2 d8b9 407c dbbc 5e2d 6d3c
00000120: 7d9c 1b3c 5f88 06bc 8280 933c 53fc 1abd
00000130: 29e6 003d ef8b 183d 8063 0f3d fe69 7f3b
00000140: 4d87 15bd 13a3 d0bc 9f9b a23c a669 fabc
00000150: e6f7 e2bb 7368 10bd d615 f0bc d0f1 47bc
00000160: 2bb4 2a3d b0f2 c2bc c3a3 003d 36ff 1b3d
00000170: b075 d73c 82b1 11ba 1e0e e9bb 8cde 823c
00000180: 48be d6bc cbe3 853c e1fc 84bb 2746 3ebc
00000190: 7988 903c 2e75 acbc 1dfd 0f3d 61ea d23c
000001a0: 1c87 3c3d 9a4e 1b3d 6d38 1d3d b0cb 2f3b
000001b0: 179c 12bd bd67 41bc 0a35 cabc 9e67 0e3c
000001c0: b2ce 0cbb f370 113d d559 42bc 7e79 4f3c
000001d0: 6c64 1dbd 4f7b 243d ba37 163d c0aa f0b7
000001e0: 661d eebc a63c e93c cee0 b23c 4c5b d93c
000001f0: e210 1fbd 3a1d ac3c 4c97 9b3c fd07 1b3d
00000200: 9a9d 1cbc 1ab0 9cbb 99aa b4bb 7366 053d
00000210: a0c9 99ba bc0d 7f3c ba50 98bc 32d0 1abd
00000220: f188 dfbc 621f 213d e240 e4bc 5cbb 06bd
00000230: aec2 90bc 9875 e5bc 3d69 1cbc a448 b5ba
00000240: 2be6 f5bb 38c9 0c3d b5d7 9e3c bf5b e83b
00000250: 2160 0c3c 617e e23b 13ea 55bc 7017 9c3c
00000260: 84f1 af3c 858f f7bb 998e c93c ce9a 1e3d
00000270: f7e4 99bc cd73 5f3c eaf0 ffbc 339d 233c
00000280: 8ac0 2c3d 1fb3 e83c 0078 b03b 9548 3e3d
00000290: 21cf 53bc 3de1 dc3c 7f69 82bc 85c5 8e3c
000002a0: 3060 f1bb 94d4 9ebc eba8 093d fb37 143d
000002b0: 68ad b4bc bbb2 21bd 5719 ab3c a7ac ff3c
000002c0: 4b25 333c f6f3 f9bc a795 0b3b bc7c 15bc
000002d0: d3c7 13bd d2af 67bc 5da4 da3c c9d4 01bc
000002e0: ebd8 8fbc fc19 c03c 7156 173d e85c 7f3c
000002f0: 429a 373b 3e8b 25bc 7a7d 0b3d c958 b03c
00000300: 0796 19bd e081 fc3c dfe2 91bc bb75 c6bc
00000310: 78a0 823b ab1f 32bd f711 303d a9eb 143d
00000320: a66e 5dba ce61 9bbc 7304 f83b bfd4 41bc
00000330: fb79 e83c 156e 83bc 1f34 1dbd f016 a839
00000340: 4af5 103d 6943 123d 8afa 9f3b 1948 093d
00000350: 71a3 023d 9533 cfbc ce52 823c c15f 383c
00000360: 6463 d1bb f951 323d c2fe 543c e60f 5e3c
00000370: 45e7 0b3d 145f 283c 8477 bc3c 01ce bebc
00000380: 4c91 69bc baef d83c 46e7 f8bc a767 793b
00000390: 01e7 563c f1f1 a13c c5d4 e1bb a867 9bba
000003a0: ba12 38bd 3255 a9bc ab38 16bd 16f5 c23c
000003b0: 0055 2cbc 1ff9 b6bc b1d3 bfbc 3487 d7bb
000003c0: f736 24bd 27ba 8ebc 93b2 08bd 8b3d a73c
000003d0: cdc8 323d 785d cd3c ec74 003d d050 36bc
000003e0: a364 9cbc 2413 a53c ffc6 e5bc 6b52 02bd
000003f0: 5933 1fbc 6f88 c73c b883 3d3d 5f88 223d

signal_branch.0.weight f4 [32, 5]
-0.24955538 0.30424812 0.31127968 -0.2942339 0.24835336 0.36698452 0.3913408 0.3926183
-0.1540599 0.1790576 -0.3140535 -0.30503494 -0.032811522 0.07827085 -0.08552581 0.19437261
0.05295977 0.19495748 -0.3166865 -0.032596618 -0.33889177 0.10881766 -0.15300529 -0.2947719
0.3053249 -0.26014453 0.4094377 0.4459987 -0.36420414 0.20874995 -0.33712816 0.35027832
-0.13208206 0.298854 0.29056543 0.22548304 0.16122183 -0.16852593 0.055338126 0.12236798
0.11038516 0.23658925 -0.013407793 0.16641152 0.23163384 0.0835737 0.09047839 -0.253007
0.07028673 0.17615575 0.08788988 0.43401644 -0.4369856 0.33296627 0.15800875 -0.17280284
-0.057927728 -0.11223 -0.27690223 -0.41122973 0.32809064 -0.12292695 0.10022761 0.3757001
0.42958432 -0.0077576423 0.4409003 -0.16980518 -0.13091223 0.024325907 0.2710177 -0.07873656
-0.2948663 -0.21119314 0.34856343 0.41805068 -0.10517735 0.21709782 0.09005843 -0.024321258
0.01362253 0.4323512 0.13310435 0.36386433 -0.3710584 -0.09100937 0.07276524 0.2938983
0.16395834 0.33111626 -0.00064235926 -0.44108862 -0.19458273 0.056223392 -0.25248873 0.1513058
-0.39593986 -0.10135463 0.3406492 0.03321132 0.011230547 0.26285616 -0.01213365 -0.008926822
0.23924494 0.1979005 0.26109803 -0.072722785 -0.31027684 -0.2517379 -0.1841487 0.14362064
0.3699087 0.1959038 -0.006357819 -0.043012667 0.2546736 0.2729277 0.13363768 -0.28912646
0.1423625 -0.2363156 -0.39769027 -0.15496561 0.2673509 -0.05087559 0.31311032 0.14899601
-0.0020020339 -0.24533874 0.3490157 0.2453605 -0.34583017 -0.40612492 0.06422317 -0.04902243
0.4197221 0.3649052 0.12316084 0.087554574 -0.0012488668 0.11822255 0.20677346 0.2758771
0.006538123 0.40634727 -0.40567428 -0.38255808 -0.34492758 0.23084086 0.29094726 0.0942586
0.13127266 -0.27470782 0.24518079 0.19182992 -0.26570773 -0.26064432 -0.40744936 0.07128495
00000000: 728b 7fbe 69c6 9b3e 0d60 9f3e d3a5 96be
00000010: 5850 7e3e 65e5 bb3e d25d c83e 4405 c93e
00000020: e1c1 1dbe e05a 373e 9fcb a0be 8a2d 9cbe
00000030: 6065 06bd 784c a03d 2828 afbd 9d09 473e
00000040: 58ec 583d efa2 473e bc24 a2be 0884 05bd
00000050: 3983 adbe cbdb de3d 6bad 1cbe 58ec 96be
00000060: 8c53 9c3e aa31 85be d1a1 d13e f159 e43e
00000070: f778 babe 8cc2 553e 109c acbe ae57 b33e
00000080: 8540 07be 6403 993e fec4 943e 07e5 663e
00000090: 5617 253e 1092 2cbe 3baa 623d 109c fa3d
000000a0: 9d11 e23d 7444 723e 5cac 5bbc c867 2a3e
000000b0: 6c31 6d3e b028 ab3d bc4c b93d 228a 81be
000000c0: 7df2 8f3d 2c62 343e 9cff b33d 6737 de3e
000000d0: 94bc dfbe 8e7a aa3e 0ccd 213e 3af3 30be
000000e0: a045 6dbd d8d8 e5bd 21c6 8dbe b48c d2be
000000f0: 7ffb a73e 20c1 fbbd 2244 cd3d c35b c03e
00000100: 7af2 db3e d233 febb afbd e13e 69e1 2dbe
00000110: db0d 06be 2047 c73c d5c2 8a3e a240 a1bd
00000120: b7f8 96be 0443 58be e876 b23e bd0a d63e
00000130: 3967 d7bd e44e 5e3e 8e70 b83d 603d c7bc
00000140: 0831 5f3c 235d dd3e 824c 083e 6d4c ba3e
00000150: 5efb bdbe 1f63 babd f105 953d d779 963e
00000160: b2e4 273e 1288 a93e 0064 28ba 5ed6 e1be
00000170: b240 47be 804a 663d 3446 81be e8ef 1a3e
00000180: a1b8 cabe 0493 cfbd 9269 ae3e 9808 083d
00000190: 5400 383c 1595 863e 37cc 46bc ce41 12bc
000001a0: a0fc 743e 6ea6 4a3e a4ae 853e afef 94bd
000001b0: 9bdc 9ebe cae3 80be 7a91 3cbe 4a11 133e
000001c0: ac64 bd3e 019b 483e 4055 d0bb 0d2e 30bd
000001d0: 9464 823e 2ebd 8b3e 51d8 083e 6208 94be
000001e0: 7ac7 113e b7fc 71be 0f9e cbbe 4eaf 1ebe
000001f0: 38e2 883e ec62 50bd ff4f a03e 6992 183e
00000200: 8e34 03bb 143a 7bbe 30b2 b23e c83f 7b3e
00000210: a710 b1be 9bef cfbe 7087 833d becb 48bd
00000220: d1e5 d63e dbd4 ba3e c03b fc3d d04f b33d
00000230: 04b1 a3ba aa1e f23d 6cbc 533e c33f 8d3e
00000240: c03d d63b c00c d03e 8ab4 cfbe a7de c3be
00000250: 599a b0be 8c61 6c3e 0af7 943e a70a c13d
00000260: 576c 063e 81a6 8cbe ac10 7b3e 106f 443e
00000270: d80a 88be 2c73 85be 349d d0be d8fd 913d

signal_branch.0.bias f4 [32]
-0.39239627 0.31426564 0.008809447 -0.39616805 0.29966202 0.12056638 -0.09492391 -0.030763386
-0.26783386 -0.03576582 0.04450089 0.29529685 0.04934382 -0.2825283 0.39930353 0.1807829
0.3421747 0.3309973 -0.41927528 -0.14310864 0.33431473 0.43142202 -0.17495549 0.16725719
0.3547755 0.3589737 -0.37475124 0.33177876 -0.2972179 0.0996887 -0.42525476 -0.06733605
00000000: 2ae8 c8be 6de7 a03e 8055 103c 8ad6 cabe
00000010: 4d6d 993e 82eb f63d 7867 c2bd 7f03 fcbc
00000020: 8521 89be 2e7f 12bd 9146 363d 2631 973e
00000030: bf1c 4a3d 8da7 90be 8371 cc3e 271f 393e
00000040: 8631 af3e 7a78 a93e 40ab d6be 128b 12be
00000050: 4d2b ab3e 59e3 dc3e 8827 33be 7845 2b3e
00000060: 22a5 b53e 67cb b73e 65df bfbe e8de a93e
00000070: f22c 98be 9729 cc3d feba d9be 7ce7 89bd

classifier.0.weight f4 [128, 288]
-0.022212675 0.014057364 0.008498821 -0.022602167 0.031101935 0.049040187 -0.0472302 0.039488215
-0.012444366 0.0012029589 -0.0037069619 0.02233494 0.03486069 0.010242092 -0.049545877 -0.013901399
0.0015372145 -0.008412892 -0.044234358 0.027968643 -0.036993463 -0.04806888 -0.039908588 0.028888471
0.03339233 0.023233745 -0.014934976 -0.057657503 -0.04893923 0.016394468 0.044152696 -0.05159259
0.028290216 -0.003298074 -0.041054375 -0.015542585 -0.037247136 -0.033670217 0.013860331 0.04132934
-0.059085444 -0.022721391 -0.026230237 0.042700797 0.0076763285 0.03711762 0.018624725 0.006101582
-0.03670184 -0.05119196 -0.004675762 -0.01465144 -0.03820769 -0.038221203 -0.060027063 -0.04222322
0.00925855 0.04952471 -0.055427082 -0.060484916 0.03505955 0.05137487 -0.050634213 -0.009368717
-0.0588484 0.049665783 -0.020848447 0.0011261497 0.03646219 0.030665677 -0.018358015 -0.04078836
0.05269355 0.018467778 0.022399912 0.0028387746 -0.021266393 -0.035454843 0.019054614 -0.016325299
-0.029805964 0.01808896 -0.052503604 0.03581441 0.045605436 0.006503176 -0.005800041 0.027691867
-0.03726639 -0.055523675 0.02103626 0.0035083964 0.024246732 0.04727062 0.022961427 -0.0068941424
0.053808264 -0.0054777865 -0.0029601343 0.054201726 -0.0037040422 -0.0386751 0.029821541 -0.049282935
-0.032552887 -0.05322784 0.044931967 0.006567847 -0.05893943 0.051777378 -0.0463097 -0.062009588
0.046312433 -0.043873787 -0.00395484 0.035343487 -0.00592513 0.021304589 -0.03860215 0.020572143
0.03136614 0.0030969381 -0.05008087 -0.03225661 -0.051546816 -0.05797089 0.023546519 0.053465903
0.0041167783 0.03811373 -0.0058302656 -0.06217359 0.054516327 -0.0076942295 0.03541095 0.03986784
-0.024217237 0.055748604 -0.00383953 -0.00869878 -0.057888422 0.009479096 -0.008470489 -0.016519044
-0.014130995 -0.0068685347 0.04627195 -0.01947924 -0.04423016 0.03494921 -0.015281618 -0.014930472
-0.020179067 -0.050295897 0.039124284 0.020399988 -0.011183687 0.048401665 -0.031751204 0.040045813
0.042989243 -0.02971547 -0.004338786 -0.039049197 -0.006748259 0.0053200615 -0.05535641 -0.041602574
0.013156053 0.04792721 -0.046160486 -0.013997488 -0.032563016 0.047352936 0.03376794 -0.00442876
0.015040714 0.03793915 -0.050175477 -0.0068674833 -0.057631794 -0.012448618 0.038923986 0.019586787
-0.049656697 -0.0472697 0.011215147 -0.029944371 0.01118531 -0.008338715 -0.051972 0.010216466
-0.009648565 0.006045557 0.020775352 -0.0524179 0.046632078 0.052486952 0.008556114 -0.034650344
-0.022787228 0.035326388 0.014328393 0.00089131633 -0.0038307423 0.0013024056 0.003220358 0.051842663
0.026313188 -0.037802074 -0.022636153 -0.018905792 0.044194035 -0.01809123 0.0045236014 0.016002458
-0.018533178 0.005727184 0.017757762 -0.053807925 0.03045689 0.036096625 -0.028070195 0.008911237
-0.03135462 0.033036184 -0.048468694 -0.036167476 0.032251354 -0.025601963 0.045800693 -0.040257394
-0.01058666 0.015323328 -0.026907772 0.030015625 0.014366425 -0.004772372 -0.0020965433 0.053110544
-0.011922993 0.033373438 0.03243733 0.0409686 -0.048104804 0.031387348 -0.009809746 -0.013208173
-0.031088594 0.024164375 0.038134303 0.034541827 0.028190477 -0.0071219066 -0.055484094 -0.050913874
00000000: 5bf7 b5bc dc50 663c a43e 0b3c 2e28 b9bc
00000010: 7cc9 fe3c 5dde 483d 7474 41bd 65be 213d
00000020: 74e3 4bbc 9aac 9d3a 80f0 72bb c4f7 b63c
00000030: 15ca 0e3d 73ce 273c 9ef0 4abd b2c2 63bc
00000040: 5c7c c93a 3ad6 09bc 162f 35bd 7f1e e53c
00000050: 7586 17bd e0e3 44bd 3077 23bd 84a7 ec3c
00000060: 65c6 083d b254 be3c d4b1 74bc 462a 6cbd
00000070: 8174 48bd b14d 863c 75d9 343d c052 53bd
00000080: e2c0 e73c 8024 58bb a228 28bd 54a6 7ebc
00000090: 7490 18bd c8e9 09bd 7116 633c f448 293d
000000a0: 9403 72bd 3622 babc cbe0 d6bc 08e7 2e3d
000000b0: b689 fb3b a508 183d e192 983c c8ef c73b
000000c0: ab54 16bd a9ae 51bd 2237 99bb 980c 70bc
000000d0: ab7f 1cbd d68d 1cbd f0de 75bd 41f2 2cbd
000000e0: 2cb1 173c 6cda 4a3d 8207 63bd 08bf 77bd
000000f0: 9a9a 0f3d 756e 523d d265 4fbd 3f7f 19bc
00000100: 050b 71bd 596e 4b3d 5dca aabc 509b 933a
00000110: 6159 153d 9636 fb3c 8c63 96bc b211 27bd
00000120: 31d5 573d bd49 973c 0580 b73c bc0a 3a3b
00000130: dc36 aebc 1939 11bd 6c18 9c3c a2bc 85bc
00000140: a32b f4bc 4c2f 943c 050e 57bd 21b2 123d
00000150: c4cc 3a3d 9818 d53b 450e bebb 0eda e23c
00000160: a4a4 18bd cb6c 63bd 3c54 ac3c 20ed 653b
00000170: 15a1 c63c d69e 413d 9a19 bc3c 42e8 e1bb
00000180: 0e66 5c3d 017f b3bb d0fe 41bb a102 5e3d
00000190: 84bf 72bb c869 1ebd 4e4c f43c e7dc 49bd
000001a0: 2d56 05bd 7005 5abd 950a 383d 1837 d73b
000001b0: 796a 71bd 8414 543d 3daf 3dbd c4fd 7dbd
000001c0: 1bb2 3d3d 00b5 33bd 9a97 81bb 55c4 103d
000001d0: 9827 c2bb f686 ae3c 4a1d 1ebd e986 a83c
000001e0: c879 003d 00f6 4a3b 9921 4dbd 821f 04bd
000001f0: c122 53bd e272 6dbd a1e4 c03c 10ff 5a3d
00000200: 0ae6 863b 241d 1c3d d00b bfbb bca9 7ebd
00000210: 834c 5f3d e01f fcbb 130b 113d 764c 233d
00000220: 3a63 c6bc a658 643d a0a0 7bbb 5485 0ebc
00000230: 691c 6dbd 364e 1b3c cec7 0abc f252 87bc
00000240: b085 67bc 7211 e1bb a887 3d3d ed92 9fbc
00000250: af2a 35bd e726 0f3d c05f 7abc f09e 74bc
00000260: 924e a5bc 1203 4ebd c940 203d e01d a73c
00000270: c83b 37bc d340 463d 8d0d 02bd 1407 243d
00000280: 7d15 303d db6d f3bc 602c 8ebb 0df2 1fbd
00000290: 8020 ddbb e953 ae3b 67bd 62bd 7667 2abd
000002a0: 7c8c 573c 524f 443d c712 3dbd b855 65bc
000002b0: cc60 05bd 27f5 413d 4050 0a3d 221f 91bb
000002c0: 546d 763c 1566 1b3d cd84 4dbd a008 e1bb
000002d0: 510f 6cbd 4af5 4bbc c26e 1f3d 7874 a03c
000002e0: d264 4bbd df9d 41bd bcbf 373c e64d f5bc
000002f0: 9742 373c 1b9f 08bc 98e0 54bd f762 273c
00000300: 0415 1ebc cf19 c63b 1231 aa3c 27b4 56bd
00000310: 4701 3f3d 8ffc 563d f12e 0c3c 85ed 0dbd
00000320: 48ac babc 67b2 103d a3c1 6a3c 3aa7 693a
00000330: 310d 7bbb 7bb5 aa3a a40c 533b f958 543d
00000340: c18e d73c 59d6 1abd 746f b9bc 52e0 9abc
00000350: ce04 353d 0f34 94bc b83a 943b 9617 833c
00000360: e4d2 97bc 1aab bb3b ba78 913c b365 5cbd
00000370: ba80 f93c 0eda 133d 77f3 e5bc 7000 123c
00000380: b46d 00bd f350 073d 1c87 46bd 5924 14bd
00000390: ff19 043d 35bb d1bc 8299 3b3d f0e4 24bd
000003a0: ac73 2dbc b20e 7b3c b06d dcbc 54e3 f53c
000003b0: 2761 6b3c 8f61 9cbb 2966 09bb 718a 593d
000003c0: a858 43bc 96b2 083d 01dd 043d b1ce 273d
000003d0: 8b09 45bd 0590 003d 0fb9 20bc 1867 58bc
000003e0: 82ad febc 5ef4 c53c b732 1c3d bb7b 0d3d
000003f0: b7ef e63c e25e e9bb 4a43 63bd 118b 50bd

classifier.0.bias f4 [128]
-0.021486098 0.046749316 0.019644823 -0.021706609 0.053272564 -0.063486814 -0.011201357 -0.03190029
0.05533012 -0.054937467 -0.034739327 -0.018991297 -0.0061336723 -0.03677363 0.04830356 0.036309086
-0.050553072 -0.015602757 -0.020734325 0.034830347 0.03890965 0.039703846 -0.048614915 -0.045658525
-0.0136198085 0.04845263 -0.020710832 -0.031053292 -0.003213845 0.057307906 -0.0016377114 0.02644558
0.05951233 -0.0305699 0.028864782 0.049232464 -0.043728247 -0.018157365 -0.0026744655 0.007885447
-0.0017900794 0.044007152 -0.025194418 -0.014274392 0.027257621 -0.020269396 0.040844467 -0.047178444
-0.026093567 -0.035501324 -0.011914876 -0.032876194 -0.039572276 -0.02267257 0.028092882 0.04060063
0.008749038 0.033811655 -0.021306146 0.032117903 0.007760044 0.010359071 -0.015016077 -0.040070776
0.015372217 0.049265478 -0.04478454 -0.018195977 -0.044730276 -0.035882317 -0.046941027 -0.009531746
0.030466255 0.0053726216 -0.0043554306 -0.0013361953 0.04358961 -0.04479886 -0.02154196 -0.055384416
-0.04306963 -0.053697374 0.030515656 0.04976572 -0.022586863 0.048257194 -0.024668975 0.015678035
0.044540863 0.016883206 0.03849336 -0.035127755 0.052259374 -0.013088685 0.040913697 -0.006333271
0.0063446797 -0.018609086 0.007138189 -0.051835436 -0.015151751 0.0077830874 -0.025547776 0.03924455
0.012655672 0.007936079 0.0062850513 0.050124947 0.013618935 -0.018249117 0.014508251 0.004169643
-0.023029268 0.008323431 0.021552654 -0.008809944 0.02492826 0.015371877 -0.0474397 0.019611314
-0.02336709 0.0071675815 -0.03357233 -0.053041395 0.012661285 -0.006985523 0.03971282 -0.03251161
00000000: 9d03 b0bc 367c 3f3d 2eee a03c 0fd2 b1bc
00000010: 5534 5a3d 6005 82bd e585 37bc e1a9 02bd
00000020: d6a1 623d 1c06 61bd d34a 0ebd a393 9bbc
00000030: f9fc c8bb f29f 16bd f4d9 453d d6b8 143d
00000040: bd10 4fbd b5a2 7fbc 08db a9bc 44aa 0e3d
00000050: ba5f 1f3d 80a0 223d 6f20 47bd 6f04 3bbd
00000060: 9e25 5fbc 4476 463d c3a9 a9bc 7963 febc
00000070: 5f9f 52bb b2bb 6a3d 7aa8 d6ba 67a4 d83c
00000080: 33c3 733d ba6d fabc d675 ec3c fba7 493d
00000090: 641c 33bd c1be 94bc 1646 2fbb f631 013c
000000a0: 19a1 eaba d840 343d 8664 cebc 24df 69bc
000000b0: 604b df3c 010c a6bc 874c 273d 2f3e 41bd
000000c0: 2dc2 d5bc d669 11bd 9d36 43bc 30a9 06bd
000000d0: 8a16 22bd d3bb b9bc 0b23 e63c d94c 263d
000000e0: 2058 0f3c 177e 0a3d 3a8a aebc 108e 033d
000000f0: f847 fe3b 18b9 293c fe05 76bc 4121 24bd
00000100: c0db 7b3c 99ca 493d fe6f 37bd bb0f 95bc
00000110: 1837 37bd 56f9 12bd 3c45 40bd 0a2b 1cbc
00000120: 5e94 f93c d10c b03b 00b8 8ebb 4623 afba
00000130: 058b 323d 027f 37bd c478 b0bc c5da 62bd
00000140: c869 30bd c7f1 5bbd f8fb f93c 24d7 4b3d
00000150: 1608 b9bc 56a9 453d 9716 cabc 396f 803c
00000160: 7b70 363d a64e 8a3c 37ab 1d3d 1fe2 0fbd
00000170: ed0d 563d ed71 56bc 1f95 273d 5487 cfbb
00000180: 08e7 cf3b 1572 98bc 78e7 e93b 6551 54bd
00000190: 0d3f 78bc 4509 ff3b 9249 d1bc e5be 203d
000001a0: bc59 4f3c 5406 023c d5f2 cd3b d14f 4d3d
000001b0: f421 5f3c 2c7f 95bc 04b4 6d3c 80a1 883b
000001c0: e0a7 bcbc 005f 083c 318f b03c 9557 10bc
000001d0: 5a36 cc3c 53da 7b3c 2250 42bd e8a7 a03c
000001e0: 576c bfbc 08de ea3b 2483 09bd ef41 59bd
000001f0: 4771 4f3c d0e6 e4bb e9a9 223d e52a 05bd

classifier.2.weight f4 [3, 128]
-0.0058298577 0.024562137 -0.08220404 -0.02612519 0.07271564 -0.04005084 0.0395887 -0.0839324
0.08643127 0.012970671 -0.05525191 0.07779186 -0.028027657 -0.06511218 0.07046727 0.08003246
-0.051393755 -0.057176977 0.00048149377 0.06588121 -0.07975409 0.08014523 0.05645644 0.06261427
0.031248856 0.082239084 -0.05156558 -0.036682233 -0.06300781 0.05094829 0.06495228 0.06720535
0.050023828 -0.080775544 -0.017718576 0.075427435 -0.07578684 -0.035054054 -0.045105323 -0.04273176
0.04288194 0.050751686 -0.07960766 0.0010777712 -0.07240819 -0.08382801 -0.019405441 0.06519375
0.07889781 -0.00834789 -0.05920718 0.078461714 0.05480168 -0.04894008 -0.030586224 0.0036517195
0.043229736 0.034630906 0.015904345 0.039156783 0.056630082 -0.0683149 -0.056595355 0.00038833282
-0.051719233 -0.054985862 -0.024955973 0.073456585 -0.06470937 0.0705623 0.068099946 -0.058604684
-0.04063464 0.053485014 -0.010645428 -0.035631 0.020656709 -0.012409854 -0.040882424 -0.0767714
-0.0380778 -0.06457689 -0.0861509 -0.086791396 0.03159495 -0.036710493 0.07982961 -0.033537436
0.0094057815 -0.04455003 -0.06386054 -0.04618685 -0.037204575 0.03550452 0.0012183586 -0.007010915
0.063763686 0.060575828 -0.0042654886 -0.042979512 -0.007439216 0.024765788 -0.03789672 0.07161222
0.06571401 -0.05344917 -0.0009145544 -0.024179518 0.040553533 0.08443164 -0.08030833 0.013557219
-0.041414093 -0.063235745 0.07058516 -0.04341857 0.051139165 0.06314744 -0.023358274 -0.08536343
-0.057609133 0.038216792 0.015494379 -0.082780935 -0.0809748 -0.04650068 -0.008991473 -0.030300807
0.06886395 -0.068963654 -0.02547212 0.01031404 0.036707114 -0.01759685 -0.081884116 0.015053913
-0.041168675 -0.0608494 0.027988369 0.0018182835 -0.09525918 -0.045690473 0.043944865 -0.085070044
-0.010159207 -0.0327702 0.012442164 -0.008639515 -0.0970355 0.011276239 -0.09243475 -0.01552166
-0.07799023 0.017246705 -0.033236817 -0.0147976205 -0.04668312 -0.029797131 0.053061076 0.049795456
-0.050600376 0.02920489 -0.021213382 0.037262436 -0.074338906 0.011663238 0.0849723 0.037491802
0.06389612 -0.08819662 -0.060407832 -0.032847956 -0.07806453 0.009504949 0.057605226 -0.05714959
-0.042235006 0.06954525 0.07237561 0.051789317 -0.03595488 -0.09950904 0.016840542 -0.055126376
-0.06946846 0.0104597565 -0.061980724 -0.04612729 -0.08708683 0.020803768 -0.0017644172 -0.06704543
-0.08151297 -0.043387555 0.04756414 -0.0241128 0.0054426864 0.02400115 0.060944103 -0.05847496
-0.06406607 -0.058466617 -0.014451381 0.055786073 -0.0666562 0.06268798 -0.09034113 -0.03995727
0.03397683 -0.080301665 0.08046235 -0.0038919623 -0.01577016 0.039466944 0.029397186 -0.010778945
0.076429844 -0.046114054 -0.061231427 -0.056172345 -0.02917248 0.016313061 -0.026176402 -0.074303664
-0.082081 -0.021001818 -0.07211676 0.007933171 0.041254457 -0.085611075 -0.012476566 0.05448056
-0.057710394 0.06649078 0.051494233 -0.010486721 0.028600022 -0.027917193 -0.04439713 -0.050145682
-0.01513992 -0.08897522 0.045163464 -0.08480315 -0.044185136 -0.056749534 0.07531537 0.065650195
-0.04673239 0.021256149 -0.0056288633 0.047869407 -0.06855944 -0.048359778 -0.053234443 -0.038090017
00000000: 6408 bfbb 8936 c93c 975a a8bd 7f04 d6bc
00000010: f0eb 943d 590c 24bd c327 223d c0e4 abbd
00000020: e102 b13d f082 543c d44f 62bd 5751 9f3d
00000030: 429a e5bc 8959 85bd 2551 903d 0fe8 a33d
00000040: 4282 52bd 6832 6abd 0071 fc39 baec 863d
00000050: 1d56 a3bd 2f23 a43d de3e 673d e93b 803d
00000060: 9afd ff3c f76c a83d 6e36 53bd 1c40 16bd
00000070: 3d0a 81bd 27af 503d b305 853d f5a2 893d
00000080: c9e5 4c3d a66d a5bd 8c26 91bc b379 9a3d
00000090: 2136 9bbd d794 0fbd 5cc0 38bd 7f07 2fbd
000000a0: f9a4 2f3d 00e1 4f3d 5709 a3bd 0044 8d3a
000000b0: bf4a 94bd 05ae abbd 29f8 9ebc 4d84 853d
000000c0: 2d95 a13d 97c5 08bc 3a83 72bd 89b0 a03d
000000d0: ba77 603d 6575 48bd f68f fabc b051 6f3b
000000e0: aa11 313d 23d9 0d3d d449 823c dd62 203d
000000f0: f2f4 673d afe8 8bbd 88d0 67bd 2699 cb39
00000100: 8cd7 53bd db38 61bd 7870 ccbc 6870 963d
00000110: 5986 84bd f882 903d fc77 8b3d 770b 70bd
00000120: 8270 26bd 1a13 5b3d 296a 2ebc d0f1 11bd
00000130: 4238 a93c b352 4bbc 5474 27bd 533a 9dbd
00000140: 78f7 1bbd e340 84bd e26f b0bd b0bf b1bd
00000150: b569 013d be5d 16bd b57d a33d 8d5e 09bd
00000160: b51a 1a3c 187a 36bd 51c9 82bd 6c2e 3dbd
00000170: d363 18bd 306d 113d 55b1 9f3a d1bb e5bb
00000180: 8996 823d 5c1e 783d 83c5 8bbb 490b 30bd
00000190: abc4 f3bb 9fe1 ca3c 9739 1bbd 6da9 923d
000001a0: 1195 863d 84ed 5abd b5be 6fba 2014 c6bc
000001b0: 761b 263d 7fea ac3d b278 a4bd 191f 5e3c
000001c0: d3a1 29bd be81 81bd f48e 903d acd7 31bd
000001d0: 4d77 513d 7253 813d da59 bfbc 06d3 aebd
000001e0: 8ef7 6bbd 3689 1c3d 23dc 7d3c 0d89 a9bd
000001f0: 1ed6 a5bd 7f77 3ebd f950 13bc 6639 f8bc
00000200: 8b08 8d3d d13c 8dbd e8aa d0bc 38fc 283c
00000210: 335a 163d 4527 90bc dcb2 a7bd b0a4 763c
00000220: 7ca0 28bd 383d 79bd dd47 e53c 7853 ee3a
00000230: 3f17 c3bd ef25 3bbd 88ff 333d 3439 aebd
00000240: cd72 26bc 0c3a 06bd 38da 4b3c c18c 0dbc
00000250: 8cba c6bd f9bf 383c 6e4e bdbd 904e 7ebc
00000260: 57b9 9fbd f648 8d3c 5423 08bd b871 72bc
00000270: cd36 3fbd 1d19 f4bc 9256 593d 52f6 4b3d
00000280: 5742 4fbd 183f ef3c b0c7 adbc 7fa0 183d
00000290: ff3e 98bd 2a17 3f3c f505 ae3d 0191 193d
000002a0: f8db 823d 6ea0 b4bd 346e 77bd 948b 06bd
000002b0: 4ce0 9fbd a5ba 1b3c 75f3 6b3d b015 6abd
000002c0: 9dfe 2cbd bd6d 8e3d aa39 943d 0921 543d
000002d0: 6d45 13bd 65cb cbbd 2df5 893c 32cc 61bd
000002e0: 7b45 8ebd 665f 2b3c 80df 7dbd f8ef 3cbd
000002f0: 945a b2bd aa6c aa3c 0444 e7ba 1d4f 89bd
00000300: 46f0 a6bd 26b7 31bd 9ed2 423d 3588 c5bc
00000310: 9058 b23b 0f9e c43c 86a0 793d 7183 6fbd
00000320: 1235 83bd b17a 6fbd 7cc5 6cbc f07f 643d
00000330: 0c83 88bd 8e62 803d c504 b9bd 3caa 23bd
00000340: 4a2b 0b3d 3375 a4bd 72c9 a43d 4b10 7fbb
00000350: 6c30 81bc 17a8 213d 5ed2 f03c 2c9a 30bc
00000360: 4087 9c3d 17e2 3cbd cecd 7abd f914 66bd
00000370: 20fb eebc f8a2 853c e56f d6bc 852c 98bd
00000380: 151a a8bd 010c acbc f4b1 93bd 21fa 013c
00000390: 6ffa 283d dc54 afbd 836a 4cbc 0227 5f3d
000003a0: bc61 6cbd 512c 883d 9eeb 523d 7fd0 2bbc
000003b0: 984a ea3c 99b2 e4bc c4d9 35bd 8f65 4dbd
000003c0: 6d0d 78bc a438 b6bd 53fd 383d 46ad adbd
000003d0: 79fb 34bd 3372 68bd f23e 9a3d 9c73 863d
000003e0: 766a 3fbd 6021 ae3c 5472 b8bb b612 443d
000003f0: e468 8cbd e714 46bd 5c0c 5abd 4704 1cbd

classifier.2.bias f4 [3]
-0.058492724 -0.0022502812 0.025491761
00000000: 1196 6fbd 7479 13bb 19d4 d03c
